…
at to features), and other optimizations to reach >0.50 macro F1.\"\n}",
    "outcome": "Execution of cell 5 in `01_baseline_model.ipynb` resulted in status: error.\n\n--- Cell Execution Result (Status: error (Execution Time: 1.35s)) ---\n```\nINFO:timm.models._builder:Loading pretrained weights from Hugging Face hub (timm/convnext_tiny.in12k_ft_in1k)\nINFO:timm.models._hub:[timm/convnext_tiny.in12k_ft_in1k] Safe alternative available for 'pytorch_model.bin' (as 'model.safetensors'). Loading weights using safetensors.\nHerbariumModel(\n  (backbone): ConvNeXt(\n    (stem): Sequential(\n      (0): Conv2d(3, 96, kernel_size=(4, 4), stride=(4, 4))\n      (1): LayerNorm2d((96,), eps=1e-06, elementwise_affine=True)\n    )\n    (stages): Sequential(\n      (0): ConvNeXtStage(\n        (downsample): Identity()\n        (blocks): Sequential(\n          (0): ConvNeXtBlock(\n            (conv_dw): Conv2d(96, 96, kernel_size=(7, 7), stride=(1, 1), padding=(3, 3), groups=96)\n            (norm): LayerNorm((96,), eps=1e-06, elementwise_affine=True)\n            (mlp): Mlp(\n              (fc1): Linear(in_features=96, out_features=384, bias=True)\n              (act): GELU()\n              (drop1): Dropout(p=0.0, inplace=False)\n              (norm): Identity()\n              (fc2): Linear(in_features=384, out_features=96, bias=True)\n              (drop2): Dropout(p=0.0, inplace=False)\n            )\n            (shortcut): Identity()\n            (drop_path): Identity()\n          )\n          (1): ConvNeXtBlock(\n            (conv_dw): Conv2d(96, 96, kernel_size=(7, 7), stride=(1, 1), padding=(3, 3), groups=96)\n            (norm): LayerNorm((96,), eps=1e-06, elementwise_affine=True)\n            (mlp): Mlp(\n              (fc1): Linear(in_features=96, out_features=384, bias=True)\n              (act): GELU()\n              (drop1): Dropout(p=0.0, inplace=False)\n              (norm): Identity()\n              (fc2): Linear(in_features=384, out_features=96, bias=True)\n              (drop2): Dropout(p=0.0, inplace=False)\n            )\n            (shortcut): Identity()\n            (drop_path): Identity()\n          )\n          (2): ConvNeXtBlock(\n            (conv_dw): Conv2d(96, 96, kernel_size=(7, 7), stride=(1, 1), padding=(3, 3), groups=96)\n            (norm): LayerNorm((96,), eps=1e-06, elementwise_affine=True)\n            (mlp): Mlp(\n              (fc1): Linear(in_features=96, out_features=384, bias=True)\n              (act): GELU()\n              (drop1): Dropout(p=0.0, inplace=False)\n              (norm): Identity()\n              (fc2): Linear(in_features=384, out_features=96, bias=True)\n              (drop2): Dropout(p=0.0, inplace=False)\n            )\n            (shortcut): Identity()\n            (drop_path): Identity()\n          )\n        )\n      )\n      (1): ConvNeXtStage(\n        (downsample): Sequential(\n          (0): LayerNorm2d((96,), eps=1e-06, elementwise_affine=True)\n          (1): Conv2d(96, 192, kernel_size=(2, 2), stride=(2, 2))\n        )\n        (blocks): Sequential(\n          (0): ConvNeXtBlock(\n            (conv_dw): Conv2d(192, 192, kernel_size=(7, 7), stride=(1, 1), padding=(3, 3), groups=192)\n            (norm): LayerNorm((192,), eps=1e-06, elementwise_affine=True)\n            (mlp): Mlp(\n              (fc1): Linear(in_features=192, out_features=768, bias=True)\n              (act): GELU()\n              (drop1): Dropout(p=0.0, inplace=False)\n              (norm): Identity()\n              (fc2): Linear(in_features=768, out_features=192, bias=True)\n              (drop2): Dropout(p=0.0, inplace=False)\n            )\n            (shortcut): Identity()\n            (drop_path): Identity()\n          )\n          (1): ConvNeXtBlock(\n            (conv_dw): Conv2d(192, 192, kernel_size=(7, 7), stride=(1, 1), padding=(3, 3), groups=192)\n            (norm): LayerNorm((192,), eps=1e-06, elementwise_affine=True)\n            (mlp): Mlp(\n              (fc1): Linear(in_features=192, out_features=768, bias=True)\n              (act): GELU()\n              (drop1): Dropout(p=0.0, inplace=False)\n              (norm): Identity()\n              (fc2): Linear(in_features=768, out_features=192, bias=True)\n              (drop2): Dropout(p=0.0, inplace=False)\n            )\n            (shortcut): Identity()\n            (drop_path): Identity()\n          )\n          (2): ConvNeXtBlock(\n            (conv_dw): Conv2d(192, 192, kernel_size=(7, 7), stride=(1, 1), padding=(3, 3), groups=192)\n            (norm): LayerNorm((192,), eps=1e-06, elementwise_affine=True)\n            (mlp): Mlp(\n              (fc1): Linear(in_features=192, out_features=768, bias=True)\n              (act): GELU()\n              (drop1): Dropout(p=0.0, inplace=False)\n              (norm): Identity()\n              (fc2): Linear(in_features=768, out_features=192, bias=True)\n              (drop2): Dropout(p=0.0, inplace=False)\n            )\n            (shortcut): Identity()\n            (drop_path): Identity()\n          )\n        )\n      )\n      (2): ConvNeXtStage(\n        (downsample): Sequential(\n          (0): LayerNorm2d((192,), eps=1e-06, elementwise_affine=True)\n          (1): Conv2d(192, 384, kernel_size=(2, 2), stride=(2, 2))\n        )\n        (blocks): Sequential(\n          (0): Con\n... [Output truncated: 5,388 chars from middle, 9,916/15,304 total chars shown] ...\nfc1): Linear(in_features=384, out_features=1536, bias=True)\n              (act): GELU()\n              (drop1): Dropout(p=0.0, inplace=False)\n              (norm): Identity()\n              (fc2): Linear(in_features=1536, out_features=384, bias=True)\n              (drop2): Dropout(p=0.0, inplace=False)\n            )\n            (shortcut): Identity()\n            (drop_path): Identity()\n          )\n        )\n      )\n      (3): ConvNeXtStage(\n        (downsample): Sequential(\n          (0): LayerNorm2d((384,), eps=1e-06, elementwise_affine=True)\n          (1): Conv2d(384, 768, kernel_size=(2, 2), stride=(2, 2))\n        )\n        (blocks): Sequential(\n          (0): ConvNeXtBlock(\n            (conv_dw): Conv2d(768, 768, kernel_size=(7, 7), stride=(1, 1), padding=(3, 3), groups=768)\n            (norm): LayerNorm((768,), eps=1e-06, elementwise_affine=True)\n            (mlp): Mlp(\n              (fc1): Linear(in_features=768, out_features=3072, bias=True)\n              (act): GELU()\n              (drop1): Dropout(p=0.0, inplace=False)\n              (norm): Identity()\n              (fc2): Linear(in_features=3072, out_features=768, bias=True)\n              (drop2): Dropout(p=0.0, inplace=False)\n            )\n            (shortcut): Identity()\n            (drop_path): Identity()\n          )\n          (1): ConvNeXtBlock(\n            (conv_dw): Conv2d(768, 768, kernel_size=(7, 7), stride=(1, 1), padding=(3, 3), groups=768)\n            (norm): LayerNorm((768,), eps=1e-06, elementwise_affine=True)\n            (mlp): Mlp(\n              (fc1): Linear(in_features=768, out_features=3072, bias=True)\n              (act): GELU()\n              (drop1): Dropout(p=0.0, inplace=False)\n              (norm): Identity()\n              (fc2): Linear(in_features=3072, out_features=768, bias=True)\n              (drop2): Dropout(p=0.0, inplace=False)\n            )\n            (shortcut): Identity()\n            (drop_path): Identity()\n          )\n          (2): ConvNeXtBlock(\n            (conv_dw): Conv2d(768, 768, kernel_size=(7, 7), stride=(1, 1), padding=(3, 3), groups=768)\n            (norm): LayerNorm((768,), eps=1e-06, elementwise_affine=True)\n            (mlp): Mlp(\n              (fc1): Linear(in_features=768, out_features=3072, bias=True)\n              (act): GELU()\n              (drop1): Dropout(p=0.0, inplace=False)\n              (norm): Identity()\n              (fc2): Linear(in_features=3072, out_features=768, bias=True)\n              (drop2): Dropout(p=0.0, inplace=False)\n            )\n            (shortcut): Identity()\n            (drop_path): Identity()\n          )\n        )\n      )\n    )\n    (norm_pre): Identity()\n    (head): NormMlpClassifierHead(\n      (global_pool): SelectAdaptivePool2d(pool_type=avg, flatten=Identity())\n      (norm): LayerNorm2d((768,), eps=1e-06, elementwise_affine=True)\n      (flatten): Flatten(start_dim=1, end_dim=-1)\n      (pre_logits): Identity()\n      (drop): Dropout(p=0.0, inplace=False)\n      (fc): Identity()\n    )\n  )\n  (species_head): Linear(in_features=768, out_features=15501, bias=True)\n  (genus_head): Linear(in_features=768, out_features=2564, bias=True)\n)\n---------------------------------------------------------------------------AttributeError                            Traceback (most recent call last)Cell In[7], line 28\n     26 with torch.no_grad():\n     27     dummy_input = torch.randn(2, 3, 384, 384).to(device)\n---> 28     sp_log, gn_log = model(dummy_input)\n     29     print(f'Species logi
…
F1 model. Then request expert review before running long train.\"\n}",
    "outcome": "[2025-09-28 05:20:37] Cell 5 executed successfully in `01_baseline_model.ipynb`.\n\n--- Cell Execution Result (Status: ok (Execution Time: 0.51s)) ---\n```\nINFO:timm.models._builder:Loading pretrained weights from Hugging Face hub (timm/convnext_tiny.in12k_ft_in1k)\nINFO:timm.models._hub:[timm/convnext_tiny.in12k_ft_in1k] Safe alternative available for 'pytorch_model.bin' (as 'model.safetensors'). Loading weights using safetensors.\nHerbariumModel(\n  (backbone): ConvNeXt(\n    (stem): Sequential(\n      (0): Conv2d(3, 96, kernel_size=(4, 4), stride=(4, 4))\n      (1): LayerNorm2d((96,), eps=1e-06, elementwise_affine=True)\n    )\n    (stages): Sequential(\n      (0): ConvNeXtStage(\n        (downsample): Identity()\n        (blocks): Sequential(\n          (0): ConvNeXtBlock(\n            (conv_dw): Conv2d(96, 96, kernel_size=(7, 7), stride=(1, 1), padding=(3, 3), groups=96)\n            (norm): LayerNorm((96,), eps=1e-06, elementwise_affine=True)\n            (mlp): Mlp(\n              (fc1): Linear(in_features=96, out_features=384, bias=True)\n              (act): GELU()\n              (drop1): Dropout(p=0.0, inplace=False)\n              (norm): Identity()\n              (fc2): Linear(in_features=384, out_features=96, bias=True)\n              (drop2): Dropout(p=0.0, inplace=False)\n            )\n            (shortcut): Identity()\n            (drop_path): Identity()\n          )\n          (1): ConvNeXtBlock(\n            (conv_dw): Conv2d(96, 96, kernel_size=(7, 7), stride=(1, 1), padding=(3, 3), groups=96)\n            (norm): LayerNorm((96,), eps=1e-06, elementwise_affine=True)\n            (mlp): Mlp(\n              (fc1): Linear(in_features=96, out_features=384, bias=True)\n              (act): GELU()\n              (drop1): Dropout(p=0.0, inplace=False)\n              (norm): Identity()\n              (fc2): Linear(in_features=384, out_features=96, bias=True)\n              (drop2): Dropout(p=0.0, inplace=False)\n            )\n            (shortcut): Identity()\n            (drop_path): Identity()\n          )\n          (2): ConvNeXtBlock(\n            (conv_dw): Conv2d(96, 96, kernel_size=(7, 7), stride=(1, 1), padding=(3, 3), groups=96)\n            (norm): LayerNorm((96,), eps=1e-06, elementwise_affine=True)\n            (mlp): Mlp(\n              (fc1): Linear(in_features=96, out_features=384, bias=True)\n              (act): GELU()\n              (drop1): Dropout(p=0.0, inplace=False)\n              (norm): Identity()\n              (fc2): Linear(in_features=384, out_features=96, bias=True)\n              (drop2): Dropout(p=0.0, inplace=False)\n            )\n            (shortcut): Identity()\n            (drop_path): Identity()\n          )\n        )\n      )\n      (1): ConvNeXtStage(\n        (downsample): Sequential(\n          (0): LayerNorm2d((96,), eps=1e-06, elementwise_affine=True)\n          (1): Conv2d(96, 192, kernel_size=(2, 2), stride=(2, 2))\n        )\n        (blocks): Sequential(\n          (0): ConvNeXtBlock(\n            (conv_dw): Conv2d(192, 192, kernel_size=(7, 7), stride=(1, 1), padding=(3, 3), groups=192)\n            (norm): LayerNorm((192,), eps=1e-06, elementwise_affine=True)\n            (mlp): Mlp(\n              (fc1): Linear(in_features=192, out_features=768, bias=True)\n              (act): GELU()\n              (drop1): Dropout(p=0.0, inplace=False)\n              (norm): Identity()\n              (fc2): Linear(in_features=768, out_features=192, bias=True)\n              (drop2): Dropout(p=0.0, inplace=False)\n            )\n            (shortcut): Identity()\n            (drop_path): Identity()\n          )\n          (1): ConvNeXtBlock(\n            (conv_dw): Conv2d(192, 192, kernel_size=(7, 7), stride=(1, 1), padding=(3, 3), groups=192)\n            (norm): LayerNorm((192,), eps=1e-06, elementwise_affine=True)\n            (mlp): Mlp(\n              (fc1): Linear(in_features=192, out_features=768, bias=True)\n              (act): GELU()\n              (drop1): Dropout(p=0.0, inplace=False)\n              (norm): Identity()\n              (fc2): Linear(in_features=768, out_features=192, bias=True)\n              (drop2): Dropout(p=0.0, inplace=False)\n            )\n            (shortcut): Identity()\n            (drop_path): Identity()\n          )\n          (2): ConvNeXtBlock(\n            (conv_dw): Conv2d(192, 192, kernel_size=(7, 7), stride=(1, 1), padding=(3, 3), groups=192)\n            (norm): LayerNorm((192,), eps=1e-06, elementwise_affine=True)\n            (mlp): Mlp(\n              (fc1): Linear(in_features=192, out_features=768, bias=True)\n              (act): GELU()\n              (drop1): Dropout(p=0.0, inplace=False)\n              (norm): Identity()\n              (fc2): Linear(in_features=768, out_features=192, bias=True)\n              (drop2): Dropout(p=0.0, inplace=False)\n            )\n            (shortcut): Identity()\n            (drop_path): Identity()\n          )\n        )\n      )\n      (2): ConvNeXtStage(\n        (downsample): Sequential(\n          (0): LayerNorm2d((192,), eps=1e-06, elementwise_affine=True)\n          (1): Conv2d(192, 384, kernel_size=(2, 2), stride=(2, 2))\n        )\n        (blocks): Sequential(\n          (0): Con\n... [Output truncated: 3,644 chars from middle, 9,916/13,560 total chars shown] ...\n2): Linear(in_features=1536, out_features=384, bias=True)\n              (drop2): Dropout(p=0.0, inplace=False)\n            )\n            (shortcut): Identity()\n            (drop_path): Identity()\n          )\n          (6): ConvNeXtBlock(\n            (conv_dw): Conv2d(384, 384, kernel_size=(7, 7), stride=(1, 1), padding=(3, 3), groups=384)\n            (norm): LayerNorm((384,), eps=1e-06, elementwise_affine=True)\n            (mlp): Mlp(\n              (fc1): Linear(in_features=384, out_features=1536, bias=True)\n              (act): GELU()\n              (drop1): Dropout(p=0.0, inplace=False)\n              (norm): Identity()\n              (fc2): Linear(in_features=1536, out_features=384, bias=True)\n              (drop2): Dropout(p=0.0, inplace=False)\n            )\n            (shortcut): Identity()\n            (drop_path): Identity()\n          )\n          (7): ConvNeXtBlock(\n            (conv_dw): Conv2d(384, 384, kernel_size=(7, 7), stride=(1, 1), padding=(3, 3), groups=384)\n            (norm): LayerNorm((384,), eps=1e-06, elementwise_affine=True)\n            (mlp): Mlp(\n              (fc1): Linear(in_features=384, out_features=1536, bias=True)\n              (act): GELU()\n              (drop1): Dropout(p=0.0, inplace=False)\n              (norm): Identity()\n              (fc2): Linear(in_features=1536, out_features=384, bias=True)\n              (drop2): Dropout(p=0.0, inplace=False)\n            )\n            (shortcut): Identity()\n            (drop_path): Identity()\n          )\n          (8): ConvNeXtBlock(\n            (conv_dw): Conv2d(384, 384, kernel_size=(7, 7), stride=(1, 1), padding=(3, 3), groups=384)\n            (norm): LayerNorm((384,), eps=1e-06, elementwise_affine=True)\n            (mlp): Mlp(\n              (fc1): Linear(in_features=384, out_features=1536, bias=True)\n              (act): GELU()\n              (drop1): Dropout(p=0.0, inplace=False)\n              (norm): Identity()\n              (fc2): Linear(in_features=1536, out_features=384, bias=True)\n              (drop2): Dropout(p=0.0, inplace=False)\n            )\n            (shortcut): Identity()\n            (drop_path): Identity()\n          )\n        )\n      )\n      (3): ConvNeXtStage(\n        (downsample): Sequential(\n          (0): LayerNorm2d((384,), eps=1e-06, elementwise_affine=True)\n          (1): Conv2d(384, 768, kernel_size=(2, 2), stride=(2, 2))\n        )\n        (blocks): Sequential(\n          (0): ConvNeXtBlock(\n            (conv_dw): Conv2d(768, 768, kernel_size=(7, 7), stride=(1, 1), padding=(3, 3), groups=768)\n            (norm): LayerNorm((768,), eps=1e-06, elementwise_affine=True)\n            (mlp): Mlp(\n              (fc1): Linear(in_features=768, out_features=3072, bias=True)\n              (act): GELU()\n              (drop1): Dropout(p=0.0, inplace=False)\n              (norm): Identity()\n              (fc2): Linear(in_features=3072, out_features=768, bias=True)\n              (drop2): Dropout(p=0.0, inplace=False)\n            )\n            (shortcut): Identity()\n            (drop_path): Identity()\n          )\n          (1): ConvNeXtBlock(\n            (conv_dw): Conv2d(768, 768, kernel_size=(7, 7), stride=(1, 1), padding=(3, 3), groups=768)\n            (norm): LayerNorm((768,), eps=1e-06, elementwise_affine=True)\n            (mlp): Mlp(\n              (fc1): Linear(in_features=768, out_features=3072, bias=True)\n              (act): GELU()\n              (drop1): Dropout(p=0.0, inplace=False)\n              (norm): Identity()\n              (fc2): Linear(in_features=3072, out_features=768, bias=True)\n              (drop2): Dropout(p=0.0, inplace=False)\n            )\n            (shortcut): Identity()\n            (drop_path): Identity()\n          )\n          (2): ConvNeXtBlock(\n            (conv_dw): Conv2d(768, 768, kernel_size=(7, 7), stride=(1, 1), padding=(3, 3), groups=768)\n            (norm): LayerNorm((768,), eps=1e-06, elementwise_affine=True)\n            (mlp): Mlp(\n              (fc1): Linear(in_features=768, out_features=3072, bias=True)\n              (act): GELU()\n              (drop1): Dropout(p=0.0, inplace=False)\n              (norm): Identity()\n              (fc2): Linear(in_features=3072, out_features=768, bias=True)\n              (drop2): Dropout(p=0.0, inplace=False)\n            )\n            (shortcut): Identity()\n            (drop_path): Identity()\n          )\n        )\n      )\n    )\n    (norm_pre): Identity()\n    (head): NormMlpClassifierHead(\n      (global_pool): SelectAdaptivePool2d(pool_type=avg, flatten=Identity())\n      (norm): LayerNorm2d((768,), eps=1e-06, elementwise_affine=True)\n      (flatten): Flatten(start_dim=1, end_dim=-1)\n      (pre_logits): Identity()\n      (drop): Dropout(p=0.0, inplace=False)\n      (fc): Identity()\n    )\n  )\n  (species_head): Linear(in_features=768, out_features=15501, bias=True)\n  (genus_head): Linear(in_features=768, out_features=2564, bias=True)\n)\nSpecies logits shape: torch.Size([2, 15501]), Genus logits shape: torch.Size([2, 2564])\n```"
  },
  {
    "timestamp": "2025-09-28T05:20:50.342428",
    "turn_number": 34,
    "llm_json": "{\n  \"tool\": \"edit_file\",\n  \"filepath\": \"01_baseline_model.ipynb\",\n  \"file_edit_payload\": {\n    \"notebook_edit_type\": \"insert_cell\",\n    \"no
…
 expert review on updated pipeline before executing long train.\"\n}",
    "outcome": "[2025-09-28 05:29:43] Cell 5 executed successfully in `01_baseline_model.ipynb`.\n\n--- Cell Execution Result (Status: ok (Execution Time: 0.98s)) ---\n```\nINFO:timm.models._builder:Loading pretrained weights from Hugging Face hub (timm/convnext_tiny.in12k_ft_in1k)\nINFO:timm.models._hub:[timm/convnext_tiny.in12k_ft_in1k] Safe alternative available for 'pytorch_model.bin' (as 'model.safetensors'). Loading weights using safetensors.\nHerbariumModel(\n  (backbone): ConvNeXt(\n    (stem): Sequential(\n      (0): Conv2d(3, 96, kernel_size=(4, 4), stride=(4, 4))\n      (1): LayerNorm2d((96,), eps=1e-06, elementwise_affine=True)\n    )\n    (stages): Sequential(\n      (0): ConvNeXtStage(\n        (downsample): Identity()\n        (blocks): Sequential(\n          (0): ConvNeXtBlock(\n            (conv_dw): Conv2d(96, 96, kernel_size=(7, 7), stride=(1, 1), padding=(3, 3), groups=96)\n            (norm): LayerNorm((96,), eps=1e-06, elementwise_affine=True)\n            (mlp): Mlp(\n              (fc1): Linear(in_features=96, out_features=384, bias=True)\n              (act): GELU()\n              (drop1): Dropout(p=0.0, inplace=False)\n              (norm): Identity()\n              (fc2): Linear(in_features=384, out_features=96, bias=True)\n              (drop2): Dropout(p=0.0, inplace=False)\n            )\n            (shortcut): Identity()\n            (drop_path): Identity()\n          )\n          (1): ConvNeXtBlock(\n            (conv_dw): Conv2d(96, 96, kernel_size=(7, 7), stride=(1, 1), padding=(3, 3), groups=96)\n            (norm): LayerNorm((96,), eps=1e-06, elementwise_affine=True)\n            (mlp): Mlp(\n              (fc1): Linear(in_features=96, out_features=384, bias=True)\n              (act): GELU()\n              (drop1): Dropout(p=0.0, inplace=False)\n              (norm): Identity()\n              (fc2): Linear(in_features=384, out_features=96, bias=True)\n              (drop2): Dropout(p=0.0, inplace=False)\n            )\n            (shortcut): Identity()\n            (drop_path): Identity()\n          )\n          (2): ConvNeXtBlock(\n            (conv_dw): Conv2d(96, 96, kernel_size=(7, 7), stride=(1, 1), padding=(3, 3), groups=96)\n            (norm): LayerNorm((96,), eps=1e-06, elementwise_affine=True)\n            (mlp): Mlp(\n              (fc1): Linear(in_features=96, out_features=384, bias=True)\n              (act): GELU()\n              (drop1): Dropout(p=0.0, inplace=False)\n              (norm): Identity()\n              (fc2): Linear(in_features=384, out_features=96, bias=True)\n              (drop2): Dropout(p=0.0, inplace=False)\n            )\n            (shortcut): Identity()\n            (drop_path): Identity()\n          )\n        )\n      )\n      (1): ConvNeXtStage(\n        (downsample): Sequential(\n          (0): LayerNorm2d((96,), eps=1e-06, elementwise_affine=True)\n          (1): Conv2d(96, 192, kernel_size=(2, 2), stride=(2, 2))\n        )\n        (blocks): Sequential(\n          (0): ConvNeXtBlock(\n            (conv_dw): Conv2d(192, 192, kernel_size=(7, 7), stride=(1, 1), padding=(3, 3), groups=192)\n            (norm): LayerNorm((192,), eps=1e-06, elementwise_affine=True)\n            (mlp): Mlp(\n              (fc1): Linear(in_features=192, out_features=768, bias=True)\n              (act): GELU()\n              (drop1): Dropout(p=0.0, inplace=False)\n              (norm): Identity()\n              (fc2): Linear(in_features=768, out_features=192, bias=True)\n              (drop2): Dropout(p=0.0, inplace=False)\n            )\n            (shortcut): Identity()\n            (drop_path): Identity()\n          )\n          (1): ConvNeXtBlock(\n            (conv_dw): Conv2d(192, 192, kernel_size=(7, 7), stride=(1, 1), padding=(3, 3), groups=192)\n            (norm): LayerNorm((192,), eps=1e-06, elementwise_affine=True)\n            (mlp): Mlp(\n              (fc1): Linear(in_features=192, out_features=768, bias=True)\n              (act): GELU()\n              (drop1): Dropout(p=0.0, inplace=False)\n              (norm): Identity()\n              (fc2): Linear(in_features=768, out_features=192, bias=True)\n              (drop2): Dropout(p=0.0, inplace=False)\n            )\n            (shortcut): Identity()\n            (drop_path): Identity()\n          )\n          (2): ConvNeXtBlock(\n            (conv_dw): Conv2d(192, 192, kernel_size=(7, 7), stride=(1, 1), padding=(3, 3), groups=192)\n            (norm): LayerNorm((192,), eps=1e-06, elementwise_affine=True)\n            (mlp): Mlp(\n              (fc1): Linear(in_features=192, out_features=768, bias=True)\n              (act): GELU()\n              (drop1): Dropout(p=0.0, inplace=False)\n              (norm): Identity()\n              (fc2): Linear(in_features=768, out_features=192, bias=True)\n              (drop2): Dropout(p=0.0, inplace=False)\n            )\n            (shortcut): Identity()\n            (drop_path): Identity()\n          )\n        )\n      )\n      (2): ConvNeXtStage(\n        (downsample): Sequential(\n          (0): LayerNorm2d((192,), eps=1e-06, elementwise_affine=True)\n          (1): Conv2d(192, 384, kernel_size=(2, 2), stride=(2, 2))\n        )\n        (blocks): Sequential(\n          (0): Con\n... [Output truncated: 3,678 chars from middle, 9,916/13,594 total chars shown] ...\neatures=384, bias=True)\n              (drop2): Dropout(p=0.0, inplace=False)\n            )\n            (shortcut): Identity()\n            (drop_path): Identity()\n          )\n          (6): ConvNeXtBlock(\n            (conv_dw): Conv2d(384, 384, kernel_size=(7, 7), stride=(1, 1), padding=(3, 3), groups=384)\n            (norm): LayerNorm((384,), eps=1e-06, elementwise_affine=True)\n            (mlp): Mlp(\n              (fc1): Linear(in_features=384, out_features=1536, bias=True)\n              (act): GELU()\n              (drop1): Dropout(p=0.0, inplace=False)\n              (norm): Identity()\n              (fc2): Linear(in_features=1536, out_features=384, bias=True)\n              (drop2): Dropout(p=0.0, inplace=False)\n            )\n            (shortcut): Identity()\n            (drop_path): Identity()\n          )\n          (7): ConvNeXtBlock(\n            (conv_dw): Conv2d(384, 384, kernel_size=(7, 7), stride=(1, 1), padding=(3, 3), groups=384)\n            (norm): LayerNorm((384,), eps=1e-06, elementwise_affine=True)\n            (mlp): Mlp(\n              (fc1): Linear(in_features=384, out_features=1536, bias=True)\n              (act): GELU()\n              (drop1): Dropout(p=0.0, inplace=False)\n              (norm): Identity()\n              (fc2): Linear(in_features=1536, out_features=384, bias=True)\n              (drop2): Dropout(p=0.0, inplace=False)\n            )\n            (shortcut): Identity()\n            (drop_path): Identity()\n          )\n          (8): ConvNeXtBlock(\n            (conv_dw): Conv2d(384, 384, kernel_size=(7, 7), stride=(1, 1), padding=(3, 3), groups=384)\n            (norm): LayerNorm((384,), eps=1e-06, elementwise_affine=True)\n            (mlp): Mlp(\n              (fc1): Linear(in_features=384, out_features=1536, bias=True)\n              (act): GELU()\n              (drop1): Dropout(p=0.0, inplace=False)\n              (norm): Identity()\n              (fc2): Linear(in_features=1536, out_features=384, bias=True)\n              (drop2): Dropout(p=0.0, inplace=False)\n            )\n            (shortcut): Identity()\n            (drop_path): Identity()\n          )\n        )\n      )\n      (3): ConvNeXtStage(\n        (downsample): Sequential(\n          (0): LayerNorm2d((384,), eps=1e-06, elementwise_affine=True)\n          (1): Conv2d(384, 768, kernel_size=(2, 2), stride=(2, 2))\n        )\n        (blocks): Sequential(\n          (0): ConvNeXtBlock(\n            (conv_dw): Conv2d(768, 768, kernel_size=(7, 7), stride=(1, 1), padding=(3, 3), groups=768)\n            (norm): LayerNorm((768,), eps=1e-06, elementwise_affine=True)\n            (mlp): Mlp(\n              (fc1): Linear(in_features=768, out_features=3072, bias=True)\n              (act): GELU()\n              (drop1): Dropout(p=0.0, inplace=False)\n              (norm): Identity()\n              (fc2): Linear(in_features=3072, out_features=768, bias=True)\n              (drop2): Dropout(p=0.0, inplace=False)\n            )\n            (shortcut): Identity()\n            (drop_path): Identity()\n          )\n          (1): ConvNeXtBlock(\n            (conv_dw): Conv2d(768, 768, kernel_size=(7, 7), stride=(1, 1), padding=(3, 3), groups=768)\n            (norm): LayerNorm((768,), eps=1e-06, elementwise_affine=True)\n            (mlp): Mlp(\n              (fc1): Linear(in_features=768, out_features=3072, bias=True)\n              (act): GELU()\n              (drop1): Dropout(p=0.0, inplace=False)\n              (norm): Identity()\n              (fc2): Linear(in_features=3072, out_features=768, bias=True)\n              (drop2): Dropout(p=0.0, inplace=False)\n            )\n            (shortcut): Identity()\n            (drop_path): Identity()\n          )\n          (2): ConvNeXtBlock(\n            (conv_dw): Conv2d(768, 768, kernel_size=(7, 7), stride=(1, 1), padding=(3, 3), groups=768)\n            (norm): LayerNorm((768,), eps=1e-06, elementwise_affine=True)\n            (mlp): Mlp(\n              (fc1): Linear(in_features=768, out_features=3072, bias=True)\n              (act): GELU()\n              (drop1): Dropout(p=0.0, inplace=False)\n              (norm): Identity()\n              (fc2): Linear(in_features=3072, out_features=768, bias=True)\n              (drop2): Dropout(p=0.0, inplace=False)\n            )\n            (shortcut): Identity()\n            (drop_path): Identity()\n          )\n        )\n      )\n    )\n    (norm_pre): Identity()\n    (head): NormMlpClassifierHead(\n      (global_pool): SelectAdaptivePool2d(pool_type=avg, flatten=Identity())\n      (norm): LayerNorm2d((768,), eps=1e-06, elementwise_affine=True)\n      (flatten): Flatten(start_dim=1, end_dim=-1)\n      (pre_logits): Identity()\n      (drop): Dropout(p=0.0, inplace=False)\n      (fc): Identity()\n    )\n  )\n  (inst_embed): Embedding(60, 64)\n  (species_head): Linear(in_features=832, out_features=15501, bias=True)\n  (genus_head): Linear(in_features=832, out_features=2564, bias=True)\n)\nSpecies logits shape: torch.Size([2, 15501]), Genus logits shape: torch.Size([2, 2564])\n```"
  },
  {
    "timestamp": "2025-09-28T05:30:32.312231",
    "turn_number": 44,
    "llm_json": "{\n  \"tool\": \"edit_file\",\n  \"filepath\": \"01_baseline_model.ipynb\",\n  \"file_edit_payload\": {\n    \"notebook_edit_type\": \"modify_cell\",\n    \"no
…
