…
r=0.0, bgr=0.0, mosaic=1.0, mixup=0.0, copy_paste=0.0, copy_paste_mode=flip, auto_augment=randaugment, erasing=0.4, crop_fraction=1.0, cfg=None, tracker=botsort.yaml, save_dir=runs_det/yolov8s_1024_ca\nDownloading https://ultralytics.com/assets/Arial.ttf to '/app/.config/Ultralytics/Arial.ttf'...\n\r  0%|          | 0.00/755k [00:00<?, ?B/s]\r100%|██████████| 755k/755k [00:00<00:00, 167MB/s]Overriding model.yaml nc=80 with nc=1\n\n                   from  n    params  module                                       arguments                     \n  0                  -1  1       928  ultralytics.nn.modules.conv.Conv             [3, 32, 3, 2]                 \n  1                  -1  1     18560  ultralytics.nn.modules.conv.Conv             [32, 64, 3, 2]                \n  2                  -1  1     29056  ultralytics.nn.modules.block.C2f             [64, 64, 1, True]             \n  3                  -1  1     73984  ultralytics.nn.modules.conv.Conv             [64, 128, 3, 2]               \n  4                  -1  2    197632  ultralytics.nn.modules.block.C2f             [128, 128, 2, True]           \n  5                  -1  1    295424  ultralytics.nn.modules.conv.Conv             [128, 256, 3, 2]              \n  6                  -1  2    788480  ultralytics.nn.modules.block.C2f             [256, 256, 2, True]           \n  7                  -1  1   1180672  ultralytics.nn.modules.conv.Conv             [256, 512, 3, 2]              \n  8                  -1  1   1838080  ultralytics.nn.modules.block.C2f             [512, 512, 1, True]           \n  9                  -1  1    656896  ultralytics.nn.modules.block.SPPF            [512, 512, 5]                 \n 10                  -1  1         0  torch.nn.modules.upsampling.Upsample         [None, 2, 'nearest']          \n 11             [-1, 6]  1         0  ultralytics.nn.modules.conv.Concat           [1]                           \n 12                  -1  1    591360  ultralytics.nn.modules.block.C2f             [768, 256, 1]                 \n 13                  -1  1         0  torch.nn.modules.upsampling.Upsample         [None, 2, 'nearest']          \n 14             [-1, 4]  1         0  ultralytics.nn.modules.conv.Concat           [1]                           \n 15                  -1  1    148224  ultralytics.nn.modules.block.C2f             [384, 128, 1]                 \n 16                  -1  1    147712  ultralytics.nn.modules.conv.Conv             [128, 128, 3, 2]              \n 17            [-1, 12]  1         0  ultralytics.nn.modules.conv.Concat           [1]                           \n 18                  -1  1    493056  ultralytics.nn.modules.block.C2f             [384, 256, 1]                 \n 19                  -1  1    590336  ultralytics.nn.modules.conv.Conv             [256, 256, 3, 2]              \n 20             [-1, 9]  1         0  ultralytics.nn.modules.conv.Concat           [1]                           \n 21                  -1  1   1969152  ultralytics.nn.modules.block.C2f             [768, 512, 1]                 \n 22        [15, 18, 21]  1    819795  ultralytics.nn.modules.head.Detect           [1, [128, 256, 512]]          \n\nModel summary: 249 layers, 9,839,347 parameters, 9,839,331 gradients, 23.6 GFLOPs\n\nTransferred 313/391 items from pretrained weights\nFreezing layer 'model.22.dfl.conv.weight'\nAMP: running Automatic Mixed Precision (AMP) checks with YOLO11n...\nDownloading https://github.com/ultralytics/assets/releases/download/v8.3.0/yolo11n.pt to 'yolo11n.pt'...\n\r  0%|      
…
r=0.0, bgr=0.0, mosaic=1.0, mixup=0.0, copy_paste=0.0, copy_paste_mode=flip, auto_augment=randaugment, erasing=0.4, crop_fraction=1.0, cfg=None, tracker=botsort.yaml, save_dir=runs_det/yolov8s_1024_ca\nDownloading https://ultralytics.com/assets/Arial.ttf to '/app/.config/Ultralytics/Arial.ttf'...\n\r  0%|          | 0.00/755k [00:00<?, ?B/s]\r100%|██████████| 755k/755k [00:00<00:00, 167MB/s]Overriding model.yaml nc=80 with nc=1\n\n                   from  n    params  module                                       arguments                     \n  0                  -1  1       928  ultralytics.nn.modules.conv.Conv             [3, 32, 3, 2]                 \n  1                  -1  1     18560  ultralytics.nn.modules.conv.Conv             [32, 64, 3, 2]                \n  2                  -1  1     29056  ultralytics.nn.modules.block.C2f             [64, 64, 1, True]             \n  3                  -1  1     73984  ultralytics.nn.modules.conv.Conv             [64, 128, 3, 2]               \n  4                  -1  2    197632  ultralytics.nn.modules.block.C2f             [128, 128, 2, True]           \n  5                  -1  1    295424  ultralytics.nn.modules.conv.Conv             [128, 256, 3, 2]              \n  6                  -1  2    788480  ultralytics.nn.modules.block.C2f             [256, 256, 2, True]           \n  7                  -1  1   1180672  ultralytics.nn.modules.conv.Conv             [256, 512, 3, 2]              \n  8                  -1  1   1838080  ultralytics.nn.modules.block.C2f             [512, 512, 1, True]           \n  9                  -1  1    656896  ultralytics.nn.modules.block.SPPF            [512, 512, 5]                 \n 10                  -1  1         0  torch.nn.modules.upsampling.Upsample         [None, 2, 'nearest']          \n 11             [-1, 6]  1         0  ultralytics.nn.modules.conv.Concat           [1]                           \n 12                  -1  1    591360  ultralytics.nn.modules.block.C2f             [768, 256, 1]                 \n 13                  -1  1         0  torch.nn.modules.upsampling.Upsample         [None, 2, 'nearest']          \n 14             [-1, 4]  1         0  ultralytics.nn.modules.conv.Concat           [1]                           \n 15                  -1  1    148224  ultralytics.nn.modules.block.C2f             [384, 128, 1]                 \n 16                  -1  1    147712  ultralytics.nn.modules.conv.Conv             [128, 128, 3, 2]              \n 17            [-1, 12]  1         0  ultralytics.nn.modules.conv.Concat           [1]                           \n 18                  -1  1    493056  ultralytics.nn.modules.block.C2f             [384, 256, 1]                 \n 19                  -1  1    590336  ultralytics.nn.modules.conv.Conv             [256, 256, 3, 2]              \n 20             [-1, 9]  1         0  ultralytics.nn.modules.conv.Concat           [1]                           \n 21                  -1  1   1969152  ultralytics.nn.modul\n... [Output truncated: 54,490 chars from middle, 9,916/64,406 total chars shown] ...\n████ | 166/183 [00:41<00:03,  4.62it/s]\r       1/70      19.6G       1.21      1.359     0.9734       2704        640:  91%|█████████ | 166/183 [00:41<00:03,  4.62it/s]\r       1/70      19.6G       1.21      1.359     0.9
…
 cls=0.5, dfl=1.5, pose=12.0, kobj=1.0, label_smoothing=0.0, nbs=64, hsv_h=0.015, hsv_s=0.45, hsv_v=0.3, degrees=5.0, translate=0.1, scale=0.3, shear=0.0, perspective=0.0001, flipud=0.0, fliplr=0.0, bgr=0.0, mosaic=1.0, mixup=0.0, copy_paste=0.0, copy_paste_mode=flip, auto_augment=randaugment, erasing=0.4, crop_fraction=1.0, cfg=None, tracker=botsort.yaml, save_dir=runs_det/yolov8m_1024_ca\nOverriding model.yaml nc=80 with nc=1\n\n                   from  n    params  module                                       arguments                     \n  0                  -1  1      1392  ultralytics.nn.modules.conv.Conv             [3, 48, 3, 2]                 \n  1                  -1  1     41664  ultralytics.nn.modules.conv.Conv             [48, 96, 3, 2]                \n  2                  -1  2    111360  ultralytics.nn.modules.block.C2f             [96, 96, 2, True]             \n  3                  -1  1    166272  ultralytics.nn.modules.conv.Conv             [96, 192, 3, 2]               \n  4                  -1  4    813312  ultralytics.nn.modules.block.C2f             [192, 192, 4, True]           \n  5                  -1  1    664320  ultralytics.nn.modules.conv.Conv             [192, 384, 3, 2]              \n  6                  -1  4   3248640  ultralytics.nn.modules.block.C2f             [384, 384, 4, True]           \n  7                  -1  1   1991808  ultralytics.nn.modules.conv.Conv             [384, 576, 3, 2]              \n  8                  -1  2   3985920  ultralytics.nn.modules.block.C2f             [576, 576, 2, True]           \n  9                  -1  1    831168  ultralytics.nn.modules.block.SPPF            [576, 576, 5]                 \n 10                  -1  1         0  torch.nn.modules.upsampling.Upsample         [None, 2, 'nearest']          \n 11             [-1, 6]  1         0  ultralytics.nn.modules.conv.Concat           [1]                           \n 12                  -1  2   1993728  ultralytics.nn.modules.block.C2f             [960, 384, 2]                 \n 13                  -1  1         0  torch.nn.modules.upsampling.Upsample         [None, 2, 'nearest']          \n 14             [-1, 4]  1         0  ultralytics.nn.modules.conv.Concat           [1]                           \n 15                  -1  2    517632  ultralytics.nn.modules.block.C2f             [576, 192, 2]                 \n 16                  -1  1    332160  ultralytics.nn.modules.conv.Conv             [192, 192, 3, 2]              \n 17            [-1, 12]  1         0  ultralytics.nn.modules.conv.Concat           [1]                           \n 18                  -1  2   1846272  ultralytics.nn.modules.block.C2f             [576, 384, 2]                 \n 19                  -1  1   1327872  ultralytics.nn.modules.conv.Conv             [384, 384, 3, 2]              \n 20             [-1, 9]  1         0  ultralytics.nn.modules.conv.Concat           [1]      \n... [Output truncated: 40,112 chars from middle, 9,916/50,028 total chars shown] ...\n  672:  49%|████▉     | 120/244 [00:39<00:37,  3.28it/s]\r       1/80      19.9G      1.137       1.32     0.9751       1955        672:  49%|████▉     | 120/244 [00:40<00:37,  3.28it/s]\r       1/80      19.9G      1.137       1.32     0.9751       1955        672:  50%|████▉     | 121/244 [00:40<00:38
…
